…
2020-10-08 04:09:48,757   INFO  Database filter by difficulty Pedestrian: 2168 => 2075
2020-10-08 04:09:48,759   INFO  Database filter by difficulty Cyclist: 705 => 581
2020-10-08 04:09:48,772   INFO  Loading KITTI dataset
2020-10-08 04:09:49,027   INFO  Total samples for KITTI dataset: 3712
2020-10-08 04:09:56,012   INFO  DistributedDataParallel(
  (module): MixAnchor_Memory(
    (backbone_3d): PointNet2MSG_NOFP(
      (SA_modules): ModuleList(
        (0): PointnetSAModuleMSG(
          (groupers): ModuleList(
            (0): QueryAndGroup()
            (1): QueryAndGroup()
          )
          (mlps): ModuleList(
            (0): Sequential(
              (0): Conv2d(4, 16, kernel_size=(1, 1), stride=(1, 1), bias=False)
              (1): BatchNorm2d(16, eps=1e-05, momentum=0.1, affine=True, track_running_stats=True)
              (2): ReLU()
              (3): Conv2d(16, 16, kernel_size=(1, 1), stride=(1, 1), bias=False)
              (4): BatchNorm2d(16, eps=1e-05, momentum=0.1, affine=True, track_running_stats=True)
              (5): ReLU()
              (6): Conv2d(16, 32, kernel_size=(1, 1), stride=(1, 1), bias=False)
              (7): BatchNorm2d(32, eps=1e-05, momentum=0.1, affine=True, track_running_stats=True)
              (8): ReLU()
            )
            (1): Sequential(
              (0): Conv2d(4, 32, kernel_size=(1, 1), stride=(1, 1), bias=False)
              (1): BatchNorm2d(32, eps=1e-05, momentum=0.1, affine=True, track_running_stats=True)
              (2): ReLU()
              (3): Conv2d(32, 32, kernel_size=(1, 1), stride=(1, 1), bias=False)
              (4): BatchNorm2d(32, eps=1e-05, momentum=0.1, affine=True, track_running_stats=True)
              (5): ReLU()
              (6): Conv2d(32, 64, kernel_size=(1, 1), stride=(1, 1), bias=False)
              (7): BatchNorm2d(64, eps=1e-05, momentum=0.1, affine=True, track_running_stats=True)
              (8): ReLU()
            )
          )
        )
      )
    )
    (vfe): PillarVFE(
      (pfn_layers): ModuleList(
        (0): PFNLayer(
          (linear): Linear(in_features=10, out_features=96, bias=False)
          (norm): BatchNorm1d(96, eps=0.001, momentum=0.01, affine=True, track_running_stats=True)
        )
      )
    )
    (map_to_bev_module): PointPillarScatter_Agg_Full_Memory_3(
      (adapt_layer): Linear(in_features=192, out_features=96, bias=False)
      (norm_layer): BatchNorm1d(96, eps=0.001, momentum=0.01, affine=True, track_running_stats=True)
      (memory): MemoryUnit_Full_Agg_3(mem_dim=1000, fea_dim=True)
    )
    (pfe): None
    (backbone_2d): BaseBEVBackbone(
      (blocks): ModuleList(
        (0): Sequential(
          (0): ZeroPad2d(padding=(1, 1, 1, 1), value=0.0)
          (1): Conv2d(192, 192, kernel_size=(3, 3), stride=(2, 2), bias=False)
          (2): BatchNorm2d(192, eps=0.001, momentum=0.01, affine=True, track_running_stats=True)
          (3): ReLU()
          (4): Conv2d(192, 192, kernel_size=(3, 3), stride=(1, 1), padding=(1, 1), bias=False)
          (5): BatchNorm2d(192, eps=0.001, momentum=0.01, affine=True, track_running_stats=True)
          (6): ReLU()
          (7): Conv2d(192, 192, kernel_size=(3, 3), stride=(1, 1), padding=(1, 1), bias=False)
          (8): BatchNorm2d(192, eps=0.001, momentum=0.01, affine=True, track_running_stats=True)
          (9): ReLU()
          (10): Conv2d(192, 192, kernel_size=(3, 3), stride=(1, 1), padding=(1, 1), bias=False)
          (11): BatchNorm2d(192, eps=0.001, momentum=0.01, affine=True, track_running_stats=True)
          (12): ReLU()
        )
        (1): Sequential(
          (0): ZeroPad2d(padding=(1, 1, 1, 1), value=0.0)
          (1): Conv2d(192, 384, kernel_size=(3, 3), stride=(2, 2), bias=False)
          (2): BatchNorm2d(384, eps=0.001, momentum=0.01, affine=True, track_running_stats=True)
          (3): ReLU()
          (4): Conv2d(384, 384, kernel_size=(3, 3), stride=(1, 1), padding=(1, 1), bias=False)
          (5): BatchNorm2d(384, eps=0.001, momentum=0.01, affine=True, track_running_stats=True)
          (6): ReLU()
          (7): Conv2d(384, 384, kernel_size=(3, 3), stride=(1, 1), padding=(1, 1), bias=False)
          (8): BatchNorm2d(384, eps=0.001, momentum=0.01, affine=True, track_running_stats=True)
          (9): ReLU()
          (10): Conv2d(384, 384, kernel_size=(3, 3), stride=(1, 1), padding=(1, 1), bias=False)
          (11): BatchNorm2d(384, eps=0.001, momentum=0.01, affine=True, track_running_stats=True)
          (12): ReLU()
          (13): Conv2d(384, 384, kernel_size=(3, 3), stride=(1, 1), padding=(1, 1), bias=False)
          (14): BatchNorm2d(384, eps=0.001, momentum=0.01, affine=True, track_running_stats=True)
          (15): ReLU()
          (16): Conv2d(384, 384, kernel_size=(3, 3), stride=(1, 1), padding=(1, 1), bias=False)
          (17): BatchNorm2d(384, eps=0.001, momentum=0.01, affine=True, track_running_stats=True)
          (18): ReLU()
        )
        (2): Sequential(
          (0): ZeroPad2d(padding=(1, 1, 1, 1), value=0.0)
          (1): Conv2d(384, 768, kernel_size=(3, 3), stride=(2, 2), bias=False)
          (2): BatchNorm2d(768, eps=0.001, momentum=0.01, affine=True, track_running_stats=True)
          (3): ReLU()
          (4): Conv2d(768, 768, kernel_size=(3, 3), stride=(1, 1), padding=(1, 1), bias=False)
          (5): BatchNorm2d(768, eps=0.001, momentum=0.01, affine=True, track_running_stats=True)
          (6): ReLU()
          (7): Conv2d(768, 768, kernel_size=(3, 3), stride=(1, 1), padding=(1, 1), bias=False)
          (8): BatchNorm2d(768, eps=0.001, momentum=0.01, affine=True, track_running_stats=True)
          (9): ReLU()
          (10): Conv2d(768, 768, kernel_size=(3, 3), stride=(1, 1), padding=(1, 1), bias=False)
          (11): BatchNorm2d(768, eps=0.001, momentum=0.01, affine=True, track_running_stats=True)
          (12): ReLU()
          (13): Conv2d(768, 768, kernel_size=(3, 3), stride=(1, 1), padding=(1, 1), bias=False)
          (14): BatchNorm2d(768, eps=0.001, momentum=0.01, affine=True, track_running_stats=True)
          (15): ReLU()
          (16): Conv2d(768, 768, kernel_size=(3, 3), stride=(1, 1), padding=(1, 1), bias=False)
          (17): BatchNorm2d(768, eps=0.001, momentum=0.01, affine=True, track_running_stats=True)
          (18): ReLU()
        )
      )
      (deblocks): ModuleList(
        (0): Sequential(
          (0): ConvTranspose2d(192, 128, kernel_size=(1, 1), stride=(1, 1), bias=False)
          (1): BatchNorm2d(128, eps=0.001, momentum=0.01, affine=True, track_running_stats=True)
          (2): ReLU()
        )
        (1): Sequential(
          (0): ConvTranspose2d(384, 128, kernel_size=(2, 2), stride=(2, 2), bias=False)
          (1): BatchNorm2d(128, eps=0.001, momentum=0.01, affine=True, track_running_stats=True)
          (2): ReLU()
        )
        (2): Sequential(
          (0): ConvTranspose2d(768, 128, kernel_size=(4, 4), stride=(4, 4), bias=False)
          (1): BatchNorm2d(128, eps=0.001, momentum=0.01, affine=True, track_running_stats=True)
          (2): ReLU()
        )
      )
    )
    (dense_head): AnchorHeadSingle(
      (cls_loss_func): SigmoidFocalClassificationLoss()
      (reg_loss_func): WeightedSmoothL1Loss()
      (dir_loss_func): WeightedCrossEntropyLoss()
      (conv_cls): Conv2d(384, 18, kernel_size=(1, 1), stride=(1, 1))
      (conv_box): Conv2d(384, 42, kernel_size=(1, 1), stride=(1, 1))
      (conv_dir_cls): Conv2d(384, 12, kernel_size=(1, 1), stride=(1, 1))
    )
    (point_head): None
    (roi_head): None
    (transformer): None
  )
)
2020-10-08 04:09:56,016   INFO  **********************Start training cfgs/kitti_models/mix_anchor_agg_full_memory(agg_full_mem1000_3)**********************
2020-10-08 04:18:26,132   INFO  **********************Epoch1 training finished**********************
2020-10-08 04:26:48,670   INFO  **********************Epoch2 training finished**********************
…
